app/src/main/assets/disease_medication_model.tflite (tflite, 23464 bytes, 6 tensors)

sequential/dense_1/BiasAdd/ReadVariableOp f4 [32]
000000 be d3 25 bc 00 00 00 00 d2 60 a0 bc b9 2d 13 3c
       -0.010121284 0.0 -0.019577418 0.008983069
000010 cb 21 91 3c e3 2c 2e bc e1 d9 ef bb 23 a1 a7 3c
       0.017716309 -0.010630819 -0.0073196744 0.020462578
000020 d8 b4 0d bc 7b 77 ad bb 6f 8e 67 bc 00 00 00 00
       -0.008649074 -0.005293784 -0.01413308 0.0
000030 e6 c4 1a bc 33 27 da bc 01 04 2c 3c 35 61 1b bb
       -0.009446358 -0.02663002 0.0104990015 -0.0023709063
000040 64 cf fa 3b 47 37 86 bc 31 01 38 bc 00 3c e1 bc
       0.0076541174 -0.01638378 -0.011230753 -0.02749443
000050 53 92 b6 bc 00 00 00 00 92 dc a7 bc a3 32 9d bc
       -0.02228657 0.0 -0.020490918 -0.019189185
000060 1e 92 8e bc 06 0a 58 bc 0d dd 32 bb 13 04 a4 bb
       -0.017403658 -0.0131859835 -0.00272924 -0.0050053685
000070 40 4c 6a 3c fb 66 78 bc 62 f7 a3 bb 55 0d 85 bc
       0.014300406 -0.015161271 -0.0050038556 -0.016241709

sequential/dense_2/BiasAdd/ReadVariableOp f4 [95]
000000 ed d7 0c 3c 7e 84 89 bb 73 a6 51 3c 3e 46 cc 3b
       0.008596403 -0.0041967025 0.012796032 0.0062339595
000010 74 29 be 3c 14 38 25 3c d6 06 11 3c 13 9e 46 3c
       0.023213126 0.010084171 0.0088517275 0.012122649
000020 94 de 4b 3c 65 a2 38 3c 4a b8 89 39 39 3d db 3b
       0.0124432035 0.011269187 0.00026267982 0.006690648
000030 d5 bf 20 3c 50 a8 34 bc fe f1 27 bc f6 72 85 3c
       0.009811361 -0.011026457 -0.0102505665 0.01629017
000040 77 ec 00 3c 92 f8 44 3c bf 0f f0 3b e9 99 e1 3b
       0.007868878 0.012022154 0.007326096 0.0068848026
000050 bb 0e 1f 3c 3e 6b c0 bb 29 57 2c 3c e0 13 00 3c
       0.009708102 -0.0058721593 0.0105188275 0.007817239
000060 da 42 07 ba 8e 01 83 3c 48 63 22 3c c2 8e 92 bc
       -0.0005159803 0.015991952 0.009911366 -0.017890338
000070 a6 58 c2 bc 01 10 34 bc 5c 01 43 3c 7e de 72 bc
       -0.023723911 -0.010990144 0.01190218 -0.014823554
000080 04 a2 7f bc f0 0f a9 b8 2a dd d4 3b 80 10 8b bb
       -0.015602592 -8.0615166e-05 0.0064960914 -0.0042439103
000090 51 b6 e3 3b ef 0d d8 ba bc a3 0f 3c 2d b7 2b 3c
       0.006949224 -0.0016483645 0.008767065 0.010480684
0000a0 7a 63 92 3c cc 2a 32 3c 46 a2 2e 3c 84 99 c3 ba
       0.0178697 0.010874461 0.010658806 -0.001492307
0000b0 b2 58 b7 3b 16 b6 e4 3b 93 68 a5 3b 0f c2 a7 bc
       0.00559529 0.006979714 0.0050478666 -0.020478277
0000c0 75 a7 0c 3c af bd 0c 3c b8 fb 86 bc bb 62 96 ba
       0.008584847 0.008590146 -0.01647745 -0.0011473516
0000d0 7d 12 95 bc 19 61 41 3c 07 fe 72 3c 42 d2 01 3c
       -0.018197292 0.011802935 0.014831073 0.0079236645
0000e0 98 0d 50 3c dc 23 d4 3a ae 1b 9a 3b 2d 8d 0e 3c
       0.0126985535 0.0016185003 0.0047030067 0.008700651
0000f0 49 94 13 3c 99 ec 52 3c 35 97 cd 3b 4f a1 23 3c
       0.009007522 0.012873792 0.006274129 0.009987189
000100 5d 0e 2d 3c fa ff cd bc aa b6 84 3c 08 c0 0f bc
       0.0105625065 -0.025146473 0.016200382 -0.008773811
000110 c4 51 e1 bb 67 99 0e 3c 20 15 42 3c 2e 12 52 3c
       -0.0068762023 0.008703566 0.011845857 0.012821717
000120 9e d3 c4 3a aa 94 3c 3c e2 42 3a 3c 98 6e 92 bb
       0.001501668 0.011510054 0.011368485 -0.00446875
000130 ce f1 a5 bc 0b 43 46 3c 80 2c 83 36 5e a7 50 3b
       -0.020256903 0.012100945 3.9092847e-06 0.003183804
000140 58 20 a3 3c a4 fd 44 3c 9a 47 27 3c 30 76 56 3c
       0.019912884 0.012023363 0.010209942 0.0130897015
000150 ba 66 fd bc 63 df 02 bd e0 53 01 bd ca f8 00 bd
       -0.030932773 -0.03195132 -0.03157413 -0.031487264
000160 6b 15 d8 bc af 29 d3 bc 5c cb ec bc cd 60 f7 bc
       -0.0263774 -0.025776712 -0.028905563 -0.030197525
000170 6c 3b fb bc 6b a4 f6 bc 66 14 ef bc
       -0.030667983 -0.030107697 -0.029184531

sequential/dense/BiasAdd/ReadVariableOp f4 [64]
000000 00 00 00 00 00 00 00 00 7c ea 12 bc d5 03 ae bc
       0.0 0.0 -0.008967038 -0.021242062
000010 bd d8 c9 3c 00 00 00 00 2e 0d 1a bc dc b1 a4 3c
       0.024639482 0.0 -0.009402556 0.020104341
000020 00 00 00 00 00 00 00 00 00 00 00 00 00 00 00 00
       0.0 0.0 0.0 0.0
000030 43 b6 83 bc 01 91 0f 3c 00 00 00 00 00 00 00 00
       -0.01607812 0.008762599 0.0 0.0
000040 00 00 00 00 01 a0 da 3b 1d 78 81 bc 13 7b 99 3c
       0.0 0.006671906 -0.015804345 0.018735444
000050 3f 2d 45 3c 0e 0d a6 bc ec 72 a7 bc 43 f3 c0 bc
       0.012034713 -0.020269897 -0.020440541 -0.023553496
000060 28 de af bc 1c 1b 54 bc 1c 28 dc 3c 00 00 00 00
       -0.021468237 -0.0129459165 0.026874594 0.0
000070 8c 28 a4 bc f7 e8 9f bc 58 2d ab bc b9 34 aa bc
       -0.020038866 -0.019520266 -0.020895645 -0.020777093
000080 00 00 00 00 00 00 00 00 ba e0 ab bc 00 00 00 00
       0.0 0.0 -0.020981181 0.0
000090 94 26 76 bc 7d c4 b4 bc a0 5d 87 3c 00 00 00 00
       -0.015023846 -0.02206635 0.016524136 0.0
0000a0 a4 0b a1 bc 52 6a 02 bc 00 00 00 00 62 5b 95 bc
       -0.019658871 -0.007959919 0.0 -0.018232051
0000b0 00 00 00 00 00 00 00 00 30 7e d8 bb 53 25 21 3c
       0.0 0.0 -0.0066068396 0.009835559
0000c0 d1 d7 59 bc 00 00 00 00 00 00 00 00 6a d6 bd bc
       -0.013296084 0.0 0.0 -0.02317353
0000d0 ec 61 c7 bc 00 00 00 00 00 00 00 00 00 00 00 00
       -0.024338685 0.0 0.0 0.0
0000e0 03 26 0e 3b 00 00 00 00 00 00 00 00 4f 3c 9e bc
       0.0021690137 0.0 0.0 -0.019315867
0000f0 ba 5e 2d bb 00 00 00 00 b0 d7 47 3b 72 9d a3 bc
       -0.0026454167 0.0 0.003049355 -0.019972537

sequential/dense/MatMul f4 [64, 1]
000000 85 09 51 be a0 47 6c bc 99 3e 8a 3e aa 76 70 3e
       -0.20413788 -0.014421374 0.27000883 0.23482767
000010 33 4d c7 3d df 55 20 be 57 1e 41 3d 96 c9 d0 3d
       0.097315215 -0.15657757 0.047148075 0.101946995
000020 60 47 8e bc 29 ca 58 be 15 a6 4c be 2e 21 3b be
       -0.017368019 -0.21170868 -0.1998523 -0.18274376
000030 82 3a 84 ba 8f 6e 46 3e 8d 3a 06 be a0 ef 33 bd
       -0.0010088237 0.19378112 -0.13108273 -0.043929696
000040 e3 56 1a be f3 2a 30 3e 92 ab 56 3d 0e a7 b0 3d
       -0.15072207 0.17203884 0.052409716 0.08625613
000050 da 16 c1 3d c9 68 83 3e 07 2e 48 3e 2e 29 75 3e
       0.09428187 0.25665882 0.19548808 0.2394149
000060 e6 8f 4a bb e1 f0 73 3e 7e 8c 0e 3e 6a 9f 44 be
       -0.0030908524 0.23822357 0.13920781 -0.19201437
000070 cf 6d 10 3d ab b9 2a 3b 67 20 8e 3e 55 53 7e 3e
       0.03526097 0.0026050608 0.27759096 0.24836476
000080 78 97 cd bd 57 35 0f be 35 10 7d 3e 60 f1 ee bc
       -0.10038656 -0.13985191 0.24713214 -0.029167831
000090 d5 6e 79 3d 96 1b 82 3e 58 6a ab 3d 61 cc 1b be
       0.060896713 0.2541167 0.08369893 -0.15214683
0000a0 99 aa 59 3e a5 ba cf 3d be 07 a4 bd 4c af 88 3e
       0.21256484 0.101430215 -0.08009289 0.2669624
0000b0 b0 60 6d be d0 a6 18 be ca 8c 23 3e e7 6a fb 3c
       -0.23181415 -0.14907384 0.15971676 0.030690623
0000c0 0a f3 0f 3e 1d 59 0c be 27 12 0c be 68 ed 50 3e
       0.14057556 -0.13705869 -0.136788 0.20403063
0000d0 b5 b1 09 3e 4c 5e 05 be 1e 90 4f be c0 22 73 bd
       0.13446696 -0.13024253 -0.2026982 -0.059359312
0000e0 15 88 65 3e 51 f1 1e be e9 04 9a be 0d 2f 8b 3d
       0.22415192 -0.15521742 -0.3008187 0.067960836
0000f0 34 d9 43 3e 48 82 44 bd 6a 5d 0a 3e ff 62 17 3e
       0.19125825 -0.04797581 0.13512197 0.14783858

sequential/dense_1/MatMul f4 [32, 64]
000000 d8 0c fc 3d f0 87 52 bd 00 7a 25 be 94 7c 1b 3e
       0.12307137 -0.05139917 -0.1615982 0.15184242
000010 0b 93 a8 bd e8 31 df 3d ee 4b 42 3e f7 f2 e1 3d
       -0.08231171 0.10898191 0.18974277 0.1103267
000020 b8 cc 7d 3e cc 69 34 3e 80 d3 90 bb d8 5c 2f 3e
       0.24785125 0.17618483 -0.004419744 0.17125261
000030 5a 1b dc 3d 7c 03 67 3e 98 ef 46 be 10 6d ca 3d
       0.107474044 0.22559923 -0.19427335 0.09884083
000040 dc 44 62 be 3c 85 53 3e ca 79 36 be 6f 4c ed 3d
       -0.2209658 0.20656294 -0.17819896 0.11586844
000050 55 2b 84 bb bb 36 48 be 93 97 92 3d d4 62 34 3e
       -0.004033486 -0.19552128 0.07157817 0.17615825
000060 69 a0 7e 3d 9e 99 81 bc 5b 1a 3b 3d 80 11 c2 3b
       0.062164698 -0.01582032 0.04567943 0.0059224963
000070 75 dd 27 3e 96 79 a0 bc b3 43 56 3c fe 1f 6b 3e
       0.16393073 -0.019589227 0.013077664 0.22961423
000080 f0 65 66 3d 98 71 60 3e 99 33 39 3d 38 94 23 3e
       0.05624956 0.21918333 0.045215223 0.1597451
000090 1f 2d 02 bc 1b d0 11 3e 0c 9d 20 3e 40 b1 14 3d
       -0.007945328 0.14239542 0.15684909 0.03630185
0000a0 28 81 48 bd 32 d4 b0 bc 44 02 2f be a0 97 79 be
       -0.048951298 -0.021585558 -0.17090708 -0.24374247
0000b0 18 36 37 be 78 8f b7 3d 2e 10 62 3d 3f 61 65 3e
       -0.17891729 0.08962911 0.05519121 0.22400378
0000c0 af 5a c6 bd 7c f1 2c 3e 1c e1 49 be 1f e6 82 3e
       -0.09685265 0.16888994 -0.19714779 0.25566193
0000d0 ce aa 3a 3e 70 f9 ba bd e8 2c d7 3d e0 ed 17 bd
       0.1822922 -0.09129608 0.10506612 -0.03709209
0000e0 7d 4e 4e 3e 00 c5 6e be b0 f6 8f bd 6b cc 48 be
       0.20147128 -0.23317337 -0.07029474 -0.1960923
0000f0 49 27 f3 bd 38 b6 9e 3d 54 c3 f3 bd 39 dc 44 be
       -0.118727274 0.07749599 -0.1190249 -0.19224633
000100 70 f9 44 3e 90 67 ff bd f4 12 67 3e 38 18 bd 3d
       0.19235778 -0.12470925 0.22565824 0.09233135
000110 8c f9 6e be e8 c1 06 be 90 1f 2c 3d 70 ff d8 3d
       -0.23337382 -0.13159907 0.042022288 0.10595596
000120 f0 52 22 be a8 c4 7f 3e d0 ca f6 3d 50 f0 96 3d
       -0.1585195 0.24977362 0.12050402 0.07370055
000130 f0 5c 67 be 60 50 4a be b0 4f 5c 3d cc d5 54 3e
       -0.22594047 -0.19757223 0.053786933 0.20784682
000140 00 ed bc 3c 80 f2 6c 3c 30 e5 8e 3d c8 c2 eb 3d
       0.02306223 0.014462113 0.06977308 0.11511761
000150 30 f6 1d be 00 98 63 ba f0 66 7d 3e 5c cc 64 be
       -0.15425944 -0.00086820126 0.24746299 -0.22343582
000160 b8 d2 f8 bd d0 74 55 3e f4 bb 57 be 8c 80 28 be
       -0.121495664 0.20845342 -0.21067792 -0.16455287
000170 00 58 84 bd 2c 47 5e 3e 00 f3 25 3b 2c 9c 50 3e
       -0.06462097 0.21706837 0.0025321841 0.20372075
000180 04 40 13 be 80 2a c5 3b 98 d5 69 3e 28 b8 1e be
       -0.14379889 0.0060170293 0.22835386 -0.15499938
000190 f8 28 31 3e 34 c5 6f be 5c 16 2e be 00 50 51 bc
       0.17300785 -0.23415071 -0.17000717 -0.012775421
0001a0 f0 67 0f bd 28 34 51 3e e0 23 2c 3d 3c 93 35 be
       -0.035011232 0.20430052 0.0420264 -0.17731947
0001b0 68 9b f9 bd d8 70 01 be b0 99 0e bd d0 58 1e bd
       -0.121878445 -0.12640703 -0.034814537 -0.038658917
0001c0 30 dc ec bd f8 21 38 3e 64 10 0f 3e a0 d9 4e be
       -0.11565435 0.17981708 0.13971096 -0.20200205
0001d0 54 50 1e be c0 7c da bc a0 c8 6d 3e 30 ac e1 3d
       -0.1546033 -0.026670814 0.23221064 0.1101917
0001e0 40 01 06 be 64 51 03 3e 20 a4 4b be 04 d5 16 be
       -0.13086414 0.12824017 -0.19886827 -0.14729697
0001f0 1c bf 7b be 28 12 ce bd 70 7a df bd 40 34 de bd
       -0.24584621 -0.10062057 -0.10912025 -0.1084981
000200 28 b6 b6 bd a8 27 ba 3d 90 9c 1c be c3 9d 12 3d
       -0.08921462 0.09089595 -0.15294099 0.035794985
000210 c3 a7 44 3e 3c ca 63 3e 29 e9 25 3e a2 77 1a 3e
       0.19204621 0.22245115 0.16202225 0.15084699
000220 cc e1 0b 3e 78 7d 0d be 00 2d 91 3d 00 88 54 ba
       0.13660353 -0.13817394 0.07088661 -0.0008107424
000230 81 17 5b be c1 68 d2 3d 40 ae 62 3d 00 c0 40 39
       -0.21395685 0.102738865 0.05534196 0.00018382072
000240 08 bd ef 3d 02 e2 ee 3d 2b 7c 2c be a7 92 87 bd
       0.11705977 0.11664201 -0.16844241 -0.066197686
000250 85 a0 a5 3d 62 46 65 3d 36 c2 64 3e 03 97 1f 3e
       0.08087257 0.055975325 0.2233971 0.1558495
000260 90 5c 38 3d da 0b 9f 3d 33 a9 63 be 20 56 b8 3d
       0.04501015 0.077659324 -0.22232513 0.09000802
000270 47 9a 13 be a1 ed 8c 3d 50 91 75 be 45 db f1 bd
       -0.14414321 0.068812616 -0.23981214 -0.118094005
000280 d0 40 61 bd a0 82 6b bd f4 ee 58 3e 58 31 b4 bd
       -0.05499345 -0.05749762 0.21184903 -0.08798474
000290 57 f9 74 3d 41 b3 49 3e e2 e1 23 be 00 f2 3d bc
       0.0598081 0.19697286 -0.16004136 -0.011593342
0002a0 9a 4a 49 be 06 1e 34 be f0 dc 30 3e b4 ff 5d 3e
       -0.19657364 -0.17589578 0.17271781 0.21679574
0002b0 fc b7 40 3e e4 7a 70 3e 1b a4 9d 3c 56 bc 08 be
       0.18820184 0.23484379 0.01924329 -0.13353094
0002c0 24 c5 38 3c 80 21 a8 3d 80 bb 0e 3d 4b b4 52 be
       0.011277471 0.082095146 0.034846783 -0.20576589
0002d0 00 35 8f bd 48 19 28 3e b8 01 aa bd 70 52 1b 3e
       -0.06992531 0.16415894 -0.08301109 0.15168166
0002e0 67 6c 18 3e cc 68 68 be 80 df 07 bc 5b c2 df 3d
       0.14885102 -0.22696227 -0.008293033 0.10925742
0002f0 aa 43 51 3e 40 0d 2a 3c 56 b3 df bc ed 08 bd bd
       0.20435968 0.010379136 -0.027307194 -0.09230218
000300 f0 a8 34 3e 90 7d 77 be 30 cf 76 3e 90 22 0a 3d
       0.1764257 -0.24168992 0.24102473 0.033724368
000310 62 6d 60 3d c8 86 0a 3e 60 33 15 be 6b db ac 3c
       0.054791816 0.13527977 -0.1457038 0.02110072
000320 30 6c 65 3e c0 42 b5 bc e8 e1 33 be 28 f7 37 3e
       0.22404552 -0.022126555 -0.17566645 0.17965376
000330 e4 58 69 3e e5 6e 5d be 08 f3 01 be 8c 2d 36 3e
       0.22787815 -0.21624334 -0.12690365 0.17790812
000340 50 92 c8 3d 8b 68 4e 3e 00 49 63 3d b5 ea 4a be
       0.09793532 0.20157067 0.05548954 -0.19816096
000350 ae b8 cb 3c e8 40 29 3e 50 4a 23 3e e8 4f ed 3d
       0.024868336 0.16528666 0.15946317 0.115875065
000360 00 5b 00 bc d4 e1 7f be c5 38 1e 3e 00 36 54 bd
       -0.007834196 -0.2498849 0.15451343 -0.05180931
000370 dc e3 19 3e f8 6c c6 3d 70 e3 55 3e 14 d0 60 be
       0.15028328 0.09688753 0.20887542 -0.21954376
000380 00 1e e8 3b 00 c4 d9 bb 28 fb b5 bd 40 84 27 be
       0.0070836544 -0.0066456795 -0.08885795 -0.16359043
000390 c4 0e 77 be 00 cd 2c 3b 46 77 73 3e d4 62 4e be
       -0.24126726 0.0026367307 0.23775968 -0.20154887
0003a0 d0 6c 3a bd 48 40 77 be ec da 53 3e 00 05 6a 3b
       -0.045513928 -0.24145615 0.20688981 0.0035708547
0003b0 ac 60 74 be b0 20 08 3e 50 88 41 be b3 20 9d 3d
       -0.23865002 0.1329372 -0.18899655 0.076722525
0003c0 a0 89 15 be 10 f2 d4 3d 90 96 1e 3d a0 59 d5 3d
       -0.14603281 0.10397732 0.038717806 0.10417485
0003d0 6c 59 2c 3e 8c af 67 be 8c ed 72 3e c0 96 df bd
       0.16830987 -0.2262556 0.2372343 -0.10917425
0003e0 f8 6c 26 be 58 3f 7a 3e 2c 3d 33 be e0 aa b9 bc
       -0.16252506 0.24438226 -0.17503804 -0.022664487
0003f0 92 70 27 be 34 46 58 be c7 93 6a be 20 8d b6 3d
       -0.16351536 -0.2112053 -0.22907935 0.08913636

sequential/dense_2/MatMul f4 [95, 32]
000000 00 ab 2a 3e a8 81 04 3e 61 9c 16 be 45 a7 de bd
       0.16666794 0.12940085 -0.14708091 -0.10871748
000010 a4 7c 57 3c cb a2 91 bd cc 5e 30 3e d2 2a 3e 3e
       0.013152275 -0.071111284 0.17223662 0.18571022
000020 6b eb d9 3d 3d 05 ed 3d 70 3e 87 3d 7f e4 de bd
       0.106406055 0.11573265 0.06603706 -0.10883426
000030 40 0e 4e be b6 0d 0a be a3 1d ba 3d b3 f3 41 bc
       -0.20122623 -0.13481793 0.09087684 -0.011837888
000040 84 49 7c bd e0 cf 19 3c f4 ea 52 be 6d f7 26 3e
       -0.061593547 0.00938794 -0.2059744 0.16305323
000050 f9 f2 27 bd 48 3e 36 3d 0a 6b 41 be 04 b4 1e 3e
       -0.0410032 0.04449299 -0.18888488 0.15498358
000060 7f a0 49 3e fb 78 4f 3d aa 9e bc bd 44 42 37 3e
       0.1969013 0.050652485 -0.0920995 0.17896372
000070 2c e9 d1 3d b9 96 2b 3e 00 91 0b bd db d4 a5 3d
       0.10249552 0.16756715 -0.03407383 0.080972396
000080 49 2f 41 bc 18 ad fb 3c 9f 7c 24 be 18 4e 8d bd
       -0.011791059 0.030722186 -0.16063164 -0.06899661
000090 a4 80 40 3e d2 74 f8 3d 26 68 38 3d 96 5d e7 3d
       0.18799073 0.12131657 0.0450212 0.11297147
0000a0 2e 34 98 bd a0 0b 60 3d e7 b3 4e bb 94 43 32 bd
       -0.074318275 0.054698586 -0.0031540336 -0.04352148
0000b0 92 bf 43 be 0d 5c 1b 3e b5 e9 0a 3e 72 a6 6d bc
       -0.19116047 0.15171833 0.13565715 -0.014505016
0000c0 28 38 f8 bb 39 bf 2b 3e fb 3f e5 bd b4 5f 59 be
       -0.0075750537 0.16772164 -0.11193844 -0.21227914
0000d0 66 70 3d 3e 14 21 c3 3d c8 91 5d 3e 44 f0 18 3e
       0.18499908 0.095277935 0.21637642 0.14935404
0000e0 ff 88 31 3e b3 e3 29 3e 5c da 01 3e 06 00 68 3c
       0.17337416 0.16590767 0.12680954 0.014160162
0000f0 25 5e 08 be 38 17 b9 3d 5c 0c 35 3e 2d 49 cb bd
       -0.13317163 0.09037632 0.17680496 -0.099260665
000100 a3 92 42 be 68 f4 0e 3d 57 4d d1 3c 59 71 ce bd
       -0.1900125 0.034901053 0.025549574 -0.10080213
000110 8c f3 6b be 65 1a 21 3e 8f 9c 2e 3e 3c ad 2f 3c
       -0.23042125 0.15732725 0.1705191 0.010722455
000120 b0 3a 30 bd 6a f5 2b 3e b2 ba 9d bd fb 2f 34 be
       -0.04302472 0.16792837 -0.07701625 -0.17596428
000130 9c d2 00 3e 00 21 06 3e 96 35 3d be eb f7 35 bd
       0.12580341 0.13098526 -0.18477473 -0.044425886
000140 66 f0 ec bd 80 4d 4c 3d af d7 2d 3e 6f ef 4a be
       -0.1156929 0.049878597 0.16976808 -0.19817899
000150 4a 41 06 be ca 41 0f be 77 73 0e bc e0 30 47 be
       -0.13110843 -0.1398994 -0.008694521 -0.19452238
000160 15 07 e1 3d 86 5a 87 bd c0 aa 30 3e 19 96 3d be
       0.10987679 -0.06609063 0.17252636 -0.18514289
000170 35 1c 0c be 28 96 9b bd f5 42 03 bd ab 38 e5 bd
       -0.13682635 -0.075969994 -0.032046277 -0.11192449
000180 b0 4d 9d 3c 50 c3 04 bd d5 9f 29 be 9a 45 3e be
       0.019202083 -0.032412827 -0.16564877 -0.18581238
000190 09 54 d7 bd 2e 1b 3f 3c df ab 4f 3d 04 86 f6 bd
       -0.10514075 0.011664195 0.05070102 -0.1203728
0001a0 45 f4 85 bd a2 6c b1 bc 28 0e e8 3d 40 83 fb 3d
       -0.06540731 -0.021658245 0.11330825 0.12280893
0001b0 2d 03 9f bd 35 89 35 bc 64 a4 2e 3e 5a 3d 4f be
       -0.077642776 -0.011080076 0.17054898 -0.20238248
0001c0 8e e8 1d bc 9b d1 6f bd 11 1f 26 3e ca 5f a2 3d
       -0.009637965 -0.058549505 0.16222788 0.079284266
0001d0 01 fd 12 3c 84 b5 28 be 6d de 85 3d 3a dc 84 3b
       0.008971454 -0.16475493 0.06536565 0.0040545734
0001e0 56 38 51 be 2e e7 9a bd f5 62 7f 3d 58 d9 80 bb
       -0.20431647 -0.07563625 0.062350232 -0.0039321594
0001f0 60 1f 33 3e 65 36 51 3e 28 a5 30 bc 54 92 a4 bd
       0.17492437 0.20430906 -0.010781564 -0.080357224
000200 2b 92 53 3e b8 ae 12 be 33 49 41 3d 6f 21 0e 3e
       0.20661227 -0.14324462 0.04718895 0.13879941
000210 77 07 a9 bd 32 2b 4b 3e df b6 d8 3d 36 28 df bd
       -0.08253377 0.19840696 0.10581755 -0.108963415
000220 70 cb 6b 3e 12 0c c4 bd a5 0c c6 3d d0 2c 1b 3c
       0.23026824 -0.09572615 0.096703805 0.009471133
000230 5a 72 0c 3e de 27 15 be 9b d8 aa 3d 92 0a 30 3e
       0.13715497 -0.1456599 0.083420955 0.17191532
000240 32 1d 67 be 46 30 22 be 77 70 ff bd 8c 2e 18 be
       -0.22569731 -0.15838727 -0.12472623 -0.14861506
000250 a4 9a 18 be ea 1f 9c bd 36 1f 1e bd 9e b1 be bd
       -0.1490274 -0.076232746 -0.038603984 -0.093112215
000260 7a dd 07 be 66 df a6 3d a3 30 51 3e ff 3b 84 3d
       -0.1326808 0.081480786 0.2042871 0.06456756
000270 89 97 e1 bd a2 6c c9 bd 65 01 03 3c e7 5b 4c be
       -0.11015231 -0.09835173 0.007995938 -0.19956933
000280 3e 72 41 3e b5 b1 ca bd 3f 0c 5d bd 13 ed 0d 3e
       0.18891236 -0.09897176 -0.053966757 0.13859968
000290 97 78 0f bd 90 5a 1f bd d0 b7 44 3e 17 97 13 3d
       -0.035027113 -0.038904727 0.19210744 0.036032762
0002a0 dd b9 ae 3d 65 23 1a 3e 62 cb 51 3d 28 1f d8 3c
       0.08531544 0.15052564 0.05121935 0.026382044
0002b0 bc 55 11 3e 45 ca 45 be cd 5a 36 be f0 54 4a be
       0.14192861 -0.19315441 -0.17808075 -0.19758964
0002c0 b0 17 82 3d 59 61 98 3d ca 1e 2a 3e 9a 62 38 be
       0.06352174 0.074404426 0.16613308 -0.18006364
0002d0 b5 78 92 3d e0 86 c4 3c f8 fc 8d 3d 57 92 3e 3e
       0.07151929 0.023990095 0.069330156 0.18610512
0002e0 a3 92 84 bc 29 bf a6 bd 41 ce 24 be 1e 53 36 be
       -0.016183203 -0.0814193 -0.16094305 -0.17805144
0002f0 cd 06 39 3d 21 18 b0 3b e6 29 ae 3b ed fe 84 3d
       0.0451725 0.00537397 0.0053150533 0.06493936
000300 02 08 b8 3d 88 c3 48 3e 43 e4 d8 bd ed aa d2 3d
       0.08985902 0.19605839 -0.105904125 0.10286508
000310 70 0f 1c bd 18 c3 39 be 84 45 15 bd cc 51 5c 3d
       -0.03810066 -0.18140829 -0.03644325 0.053788945
000320 9f 8e dd bd 78 ee 82 bd 33 df 5b 3e d2 00 37 3e
       -0.108182184 -0.063931406 0.21471862 0.17871407
000330 49 41 2f be be 49 a3 bd 3f dd 4e 3e 27 0d 25 bc
       -0.17114748 -0.079730496 0.20201586 -0.010073937
000340 46 77 0c be 39 a0 e2 3c ea b7 29 3e 12 35 15 3d
       -0.13717374 0.02766429 0.16574064 0.036427565
000350 01 d8 f6 bd a8 38 55 bd d1 68 24 3e 3a 97 52 3d
       -0.12052918 -0.052055985 0.1605561 0.051413752
000360 60 80 bc 3d b7 f9 00 bd b6 8d 1f be 78 19 50 be
       0.09204173 -0.031488147 -0.15581402 -0.20322216
000370 7a d4 53 be 6d a1 26 be 21 22 d2 bb df 7c 1a be
       -0.20686522 -0.16272517 -0.00641276 -0.15086697
000380 47 97 3d 3d 11 e1 48 be 42 28 8e 3c 2b d3 80 bd
       0.046286847 -0.19617106 0.01735318 -0.06290277
000390 3f 36 7f bd f1 90 67 3e 78 6a 3d 3e fd c2 36 3e
       -0.062307592 0.22613885 0.18497646 0.1784782
0003a0 1b 6b e8 bd ce ed 0b 3e ee f7 66 bc 24 e7 2d 3e
       -0.11348554 0.13664934 -0.014097197 0.16982704
0003b0 6c ad a0 bd 91 f6 99 bd d8 f8 f1 bd 62 6f 3e 3e
       -0.078455776 -0.07517732 -0.11815041 0.18597177
0003c0 2a 66 14 be 2f 58 1e bb 02 c1 1d be 45 14 31 be
       -0.14492097 -0.0024161448 -0.15405658 -0.17292888
0003d0 f9 2f 0a 3d 40 2f 23 bb a7 dc 05 3e 0f 74 de bd
       0.033737157 -0.002489999 0.13072453 -0.1086198
0003e0 fe ec 94 bd c4 b8 11 be d7 8b 0c be ae 5d 13 be
       -0.07271765 -0.14230639 -0.1372522 -0.14391205
0003f0 fd 7a 65 bc 10 86 c7 bd 0d c5 eb 3c d0 95 97 bd
       -0.0140063735 -0.09742367 0.028780485 -0.07401621
