app/src/main/assets/my_model.tflite (tflite, 93720 bytes, 3 tensors)

sequential_1/dense_3/MatMul1 f4 [128, 95]
00000000: b018 20bc afd1 27be fe04 f43d d791 0d3e
00000010: daa9 d53d 9628 1bbe c177 253e 2e30 bc3d
00000020: 2ec1 9d3d c940 22be fa61 943d 8aad debd
00000030: 97e0 e8bd 6f50 c5bd bbc5 193e 98d9 f4bc
00000040: 8a19 72bd f209 ac3d 112b 083e 8a4d 8a3d
00000050: c7fc 053e 997a 243e 4cdf a73d 7402 16bd
00000060: c037 aebc c438 353d c052 d7bc c205 de3d
00000070: 704a 5fbd c669 be3d e479 75bd a002 15be
00000080: 50e3 133d e1c2 123e 9a31 fcbd 9a0f 21bd
00000090: bad5 cdbd c3d4 cdbd 2e52 953d b08b 8e3d
000000a0: 94e8 653d 7047 adbc 197b b8bd fc5c 213d
000000b0: 2b9d b3bd 6629 803d 8e2a 07be e8a8 b6bd
000000c0: 7465 413d 9b45 273e eb31 26be 6b83 163e
000000d0: 40f0 e7bb 785a 80bc c3a4 143e 4ef1 8cbd
000000e0: b22a ec3d 69ac 083e 4c21 06bd 46c9 57bd
000000f0: e385 dcbd 1280 ce3d b842 353d d739 1c3e
00000100: 1e18 22be aef4 fd3d 6adf b5bd 9057 eebd
00000110: 7ae6 d3bd 5f65 03be da29 bbbd 4896 c2bd
00000120: 0053 9e3c 50cc 443c 9d4d b5bd cadc 9c3d
00000130: aa0f c73d 6989 253e 14a8 40bd 00f4 43ba
00000140: fbbf fcbd 90c5 eabc 58e9 793d 78ff efbc
00000150: 6cae 18bd 3162 c1bd 2a06 42bd 448a d5bd
00000160: 13f6 adbd cf66 24be 8c8b 02be ab40 1d3e
00000170: b837 0dbd b2e7 d6bd e73b 0f3e 6499 333d
00000180: c5f7 043e 9927 a2bd f02f 82bd 201c 1a3d
00000190: 9a0a c33d aa11 f53d f8c1 ac3d 7c61 4a3d
000001a0: f82d 853c 5846 11bd 1810 003d 521c cebd
000001b0: 1287 eebd c5b1 0b3e 51c1 043e 1117 1d3e
000001c0: 4c22 15bd 5797 ebbd 340b c8bd 9614 f13d
000001d0: 20f5 f8bd c05e bfbc aef3 e43d 641d 3b3d
000001e0: c72d 10be e0cb 6cbc fc1e 43bd 104a 6e3c
000001f0: 009d 73bc 4ec1 8c3d 9058 b03c a2f1 20be
00000200: ae0f e4bd 16cf f83d c80b 083d 3288 cc3d
00000210: e421 19bd 88b0 25be ec13 0fbe b0ab c4bd
00000220: 20de e5bb d448 393d 4035 9d3c 8ce6 303d
00000230: d008 97bc 4a67 a33d 9c4a 0ebe d57b 083e
00000240: b4ce 23be 723f f8bd ee6e b53d a03b 0bbd
00000250: 0045 7ebb b2a4 853d 4264 f9bd 53d2 b2bd
00000260: c70d 19be efd7 87bd b611 923d 14e5 9abd
00000270: 3b37 b8bd c6ef e93d 527a 9b3d 6b15 0e3e
00000280: e398 01be 8005 4abc f847 7c3d 1f8d a7bd
00000290: 4d59 1d3e 5442 0d3d c427 01bd 6606 aabd
000002a0: 7054 943c 3c46 853d e19a bcbd b6ef 863d
000002b0: 34b9 753d 9482 eebd fe33 b6bd 30aa 3e3d
000002c0: 84d4 9b3d a8a7 b4bd 607d d33c 6081 563d
000002d0: 0082 aa3c 5158 cabd 5036 cf3c 9fe9 193e
000002e0: 5442 3f3d 56ab 2dbd 6526 163e 9de5 273e
000002f0: e0ab 9dbb 7aa4 863d c018 bb3c 44eb 0dbe
00000300: 08d9 cc3c fec8 fdbd ba81 06be 899b cdbd
00000310: e8d0 98bc f0d0 37bc 1035 a3bc a02d 66bc
00000320: 58c5 79bd 001f 1f3a 5e3d ca3d 2edb d1bd
00000330: a99a 1b3e a87d 8e3c 10bc 16bc e86a 933d
00000340: e0a8 14bd 4556 103e 8dff 183e 1162 b0bd
00000350: 0030 2e3b 3734 ffbd 1001 2b3d ba8d cebd
00000360: 00ad 633b 2ef7 833d f019 50bd 16ba 38bd
00000370: e524 09be e260 cc3d ae9c cb3d b051 f43c
00000380: 98d6 bdbd 62d9 25be d054 723c 4c16 943d
00000390: 01ca 95bd 153c b5bd 6983 17be 5c65 833d
000003a0: b4f3 a73d a406 1bbd 562b e23d c992 88bd
000003b0: 3ba5 92bd c039 64bd 1ce4 3fbd c4b6 3c3d
000003c0: ea9b cebd c871 723d 3682 e03d 4608 c03d
000003d0: ee12 e9bd 6047 2f3d ff02 0fbe c474 debd
000003e0: fa1d c93d 005d 903d d895 15be e049 ea3b
000003f0: d45f e2bd c8d9 d1bd b297 05be f017 f2bd
-0.009771511 -0.16388582 0.11915015 0.13825165 0.10432787 -0.15152201 0.16158964 0.09188877
0.07702862 -0.15845026 0.0724525 -0.10872944 -0.11370962 -0.09634482 0.15016834 -0.029888913
-0.059106387 0.084003344 0.13297679 0.06753071 0.13084708 0.16062392 0.081968874 -0.036623433
-0.021266818 0.04424359 -0.026284575 0.10840942 -0.05451435 0.092975184 -0.059930697 -0.14551783
0.036105454 0.14332153 -0.12314148 -0.03932152 -0.10050531 -0.10050347 0.07291065 0.06960237
0.056130007 -0.021152228 -0.09007854 0.039395317 -0.08770212 0.06257896 -0.13199827 -0.08918935
0.047215894 0.16335146 -0.1622998 0.1469857 -0.0070782006 -0.015668139 0.14515977 -0.06881963
0.11531581 0.1334702 -0.032746598 -0.052682184 -0.10767724 0.10083021 0.04425308 0.15256439
-0.15829512 0.124001846 -0.088805035 -0.11637795 -0.10346694 -0.12831639 -0.09138842 -0.0950132
0.019326687 0.0120116025 -0.08852694 0.076593 0.097197846 0.16165699 -0.04703529 -0.00074750185
-0.12341305 -0.028658658 0.06101355 -0.029296622 -0.037275717 -0.09442557 -0.04736916 -0.10426763
-0.084942006 -0.16054843 -0.12748545 0.153567 -0.034476966 -0.10493411 0.13987695 0.043847457
0.12985142 -0.07917709 -0.063567996 0.03762448 0.095235065 0.1196626 0.08435434 0.049409375
0.016257271 -0.035467476 0.03126535 -0.100639954 -0.11646856 0.13642032 0.1296437 0.1534083
-0.03640966 -0.11503475 -0.09767762 0.117715046 -0.12156129 -0.02336061 0.11179291 0.045682326
-0.14079963 -0.014452904 -0.04763697 0.014544025 -0.014868975 0.068728074 0.021526605 -0.15717176
-0.11135803 0.121488735 0.03321436 0.09986915 -0.037385836 -0.16180623 -0.13972443 -0.09603059
-0.0070150048 0.04523547 0.01919043 0.043188617 -0.01843682 0.07978685 -0.13895649 0.13328488
-0.1599682 -0.12121476 0.08859049 -0.03399241 -0.0038798451 0.06525554 -0.12177326 -0.087315224
-0.14946662 -0.06632983 0.07132284 -0.075632244 -0.089949094 0.11422686 0.0759169 0.13875358
-0.12655978 -0.012330413 0.061592072 -0.081812136 0.15366097 0.034487084 -0.031532064 -0.08302002
0.01810667 0.06507537 -0.09209228 0.0658869 0.059991077 -0.116459996 -0.088966355 0.046549022
0.076088935 -0.088210404 0.02581662 0.052369475 0.020813942 -0.09880126 0.025294453 0.15030526
0.046694115 -0.042399727 0.14663084 0.16396184 -0.004811749 0.0657434 0.02283895 -0.13859278
0.025005832 -0.12391852 -0.13135424 -0.100394316 -0.018654302 -0.011219248 -0.019922763 -0.014048964
-0.060979217 0.0006069988 0.09874986 -0.10246883 0.15195717 0.017393902 -0.009200111 0.07198125
-0.036293864 0.14095409 0.14941235 -0.08612455 0.0026578903 -0.12461131 0.04174906 -0.10085626
0.0034740567 0.0644363 -0.050805986 -0.04509934 -0.1339298 0.099794164 0.09941994 0.029824108
-0.09269446 -0.16196206 0.014790729 0.07230815 -0.0731392 -0.0884935 -0.14796223 0.06415817
0.082007796 -0.03784813 0.11043422 -0.06668622 -0.071604215 -0.055719137 -0.0468484 0.046072736
-0.10088332 0.05919054 0.10962336 0.09376578 -0.11380564 0.042792678 -0.13965987 -0.10862115
0.09820171 0.07048988 -0.14607942 0.00714992 -0.11053434 -0.102466166 -0.13046148 -0.11820972

sequential_1/dense_4/MatMul f4 [64, 128]
00000000: d545 283e 5e39 ef3d af82 13be 4421 493d
00000010: a7cd 323e cb67 253e 70ce abbd 18b4 d03c
00000020: 7238 e63d a82e b23c a82d 6f3d 300c 68bc
00000030: d980 133e 5c40 d4bd d291 d2bd 16d0 e83d
00000040: d3af 203e 2486 9ebd 305d 34bc 6ef9 09be
00000050: 117c 2cbe c59c 213e f631 df3d b591 273e
00000060: e0d1 e33b 0019 133b d8ca 803d 18a0 9d3c
00000070: 0d16 0bbe c707 22be 512a 2a3e 264e aa3d
00000080: 68e8 b03c 4cd0 6a3d 3a85 78bd ecad 4e3d
00000090: 5459 58bd 008e 6e3b 16d2 bc3d 2fbe 063e
000000a0: 3e52 98bd 8a20 fabd a76b 14be c7ab 1b3e
000000b0: 404e a23b 9254 b8bd b6ca ab3d db55 053e
000000c0: d06f 8b3d 12b1 df3d e461 6f3d 4001 56bb
000000d0: 2dd7 b6bd 969b c23d e8cd c6bc a125 9cbd
000000e0: 3b2c e9bd 4959 06be 6edf 0abe 4d61 10be
000000f0: 4fee 223e 0084 6939 ac90 733d edf1 233e
00000100: cea9 913d 006e 01bd cae6 cd3d 5623 f3bd
00000110: 98fd f83c 5db6 25be 5a31 b03d 2af2 e23d
00000120: 6452 043d 1da7 dcbd 5ea7 b73d be1a f63d
00000130: 088d 503d 86f4 e03d c0da 9f3b d47b 453d
00000140: 590f 073e b680 1fbe dabc 11be 68fd 71bd
00000150: 4092 19bd 7f58 d7bd 0ca5 53bd d31e 2c3e
00000160: 96d4 ccbd cfab d2bd 638e 19be c65e 78bd
00000170: 99ea 1b3e 03dd 2b3e 406d 6fbd cac6 c5bd
00000180: ce4c d83d 89f1 95bd 4f72 e7bd 0bf9 bcbd
00000190: 0d96 80bd 3831 f33c a230 8f3d 4cc8 09be
000001a0: a8e8 94bd eae8 d0bd 9279 06be f74e 28be
000001b0: 68ee 31bd 2481 0b3d 7cb3 b3bd 40f0 f83c
000001c0: f24a a23d 92a8 aebd 2b1c 193e c769 0dbe
000001d0: 80fa 433d eef1 13be 5093 b03c a083 99bb
000001e0: fa53 9a3d 580d 29be 0868 3f3d 14f6 09bd
000001f0: 517e 8dbd 380a 8f3c 289a e93c d8f2 033d
00000200: 581e a13c f83e ba3c 108a 13be 1cad 22be
00000210: 0703 20be 9c33 793d 977f f8bd f873 5fbd
00000220: 0e2c c63d 2048 5b3c f820 dbbd 6274 9f3d
00000230: 1541 253e 20dc ef3b 6303 92bd 6b7a 163e
00000240: 7c90 38bd 7198 133e a0a3 30bc 60af 09bd
00000250: 8788 083e 2d9e 2b3e 3191 d0bd 06b7 a1bd
00000260: 102d 273d 8906 083e baa0 b63d 2e42 f4bd
00000270: cc77 8e3d d674 b33d 4db7 103e 7bbb 1c3e
00000280: 138b c7bd 5688 fa3d 4b3a 053e 9263 cb3d
00000290: 18eb f3bd 008c 8e3b 2733 83bd 2c01 24be
000002a0: b559 f1bd 60e7 d33c 62a4 f93d 1e15 04be
000002b0: d8e1 143d 88fe 923c 2ffd 1f3e 50a5 7bbd
000002c0: 3215 813d 3056 45bc 7cb1 f8bd c54f 153e
000002d0: 403a 9dbb 805a 983c 9657 9dbd 4889 943c
000002e0: 5c85 05bd 4010 d93c 6969 85bd 3e7c f33d
000002f0: aff5 203e 5e69 e33d 6466 a1bd 3cd9 2cbd
00000300: 6f56 303e b71e 8fbd 9aa0 cf3d db78 203e
00000310: f7c5 313e 91a1 233e 82da 13be 4068 d7bd
00000320: c036 c3bd ead7 dabd 1474 7b3d e886 933d
00000330: f2b0 e83d 35bb b5bd 20bc 8d3b d40c 553d
00000340: 226d 943d ff1d 263e b0c7 fbbc 5caf 16be
00000350: 80c7 f0bb 4b1d 02be b385 a2bd 0022 a23a
00000360: 00a5 45bc 5a3e d33d b6f8 953d 7389 1d3e
00000370: 789a 5dbd 0210 ed3d 124a b43d af9a 103e
00000380: a640 28be 954b a2bd a067 3c3d 60f3 903d
00000390: 946e 773d e8ab 543d 35ff 01be c949 93bd
000003a0: e438 0c3d 20f4 a33b 2c4c 2cbd 20ad 18bc
000003b0: bd30 e5bd 22d4 cd3d e07b 1d3d 7acf ee3d
000003c0: 1848 2ebd 301f 2b3c 303d 2c3d 8773 08be
000003d0: dad5 e13d df34 99bd 46c1 58bd 1eda da3d
000003e0: 6a6f e43d 72c2 9e3d 1024 02bc 10ca 353c
000003f0: 8913 243e eee8 db3d 216d 203e fcc3 cdbd
0.16432889 0.11680864 -0.1440532 0.04910399 0.17461263 0.16152875 -0.08388984 0.0254765
0.11241235 0.021750763 0.05839315 -0.014163062 0.1440462 -0.10363838 -0.10281719 0.11367814
0.15692072 -0.07740429 -0.011008546 -0.13474056 -0.16844203 0.15782459 0.10898201 0.16364177
0.0069525093 0.002244532 0.062886894 0.019241378 -0.1358263 -0.1582328 0.16617705 0.08315687
0.021595195 0.057327554 -0.06067393 0.050458834 -0.052819565 0.0036400557 0.09219758 0.13158487
-0.074375615 -0.122132376 -0.14494191 0.15202247 0.004953176 -0.090005055 0.083882734 0.13021033
0.06808436 0.10922445 0.058442965 -0.0032654554 -0.0892776 0.09502332 -0.024268106 -0.07624365
-0.113853894 -0.13119997 -0.13561794 -0.14099617 0.1591122 0.00022269785 0.05946414 0.16010256
0.07112466 -0.031599045 0.10053785 -0.11871974 0.03039436 -0.16182847 0.08603163 0.110813454
0.032305136 -0.10774062 0.0896747 0.120168194 0.050915748 0.10984139 0.004878372 0.048213795
0.13189448 -0.15576443 -0.14232197 -0.059079558 -0.03749299 -0.10514926 -0.051671073 0.16808634
-0.10001485 -0.10286676 -0.14995722 -0.060637258 0.1522621 0.16783528 -0.0584538 -0.09657057
0.10561524 -0.0732146 -0.113010995 -0.09227189 -0.0627862 0.029686555 0.06991698 -0.13455313
-0.07270938 -0.10200675 -0.13132313 -0.16436373 -0.043440253 0.034058705 -0.08774468 0.030387998
0.07924451 -0.08528246 0.14952151 -0.13809882 0.047846317 -0.14447758 0.02155462 -0.0046848804
0.075355485 -0.16508996 0.04673007 -0.033681944 -0.069088586 0.017460927 0.02851589 0.032214016
0.01966779 0.022735104 -0.14408135 -0.15886348 -0.15626155 0.060840234 -0.12133711 -0.054553956
0.096763715 0.013383895 -0.10699648 0.0778587 0.16138108 0.007319942 -0.07129552 0.14695136
-0.045059666 0.1441362 -0.010781199 -0.033614516 0.13333331 0.16759558 -0.10183943 -0.07896237
0.04081446 0.13283743 0.08917375 -0.11926685 0.06956443 0.08762519 0.14132424 0.15305893
-0.09743323 0.12233035 0.13010518 0.09931101 -0.11910075 0.0043501854 -0.06406241 -0.16016072
-0.117846884 0.025867164 0.12189557 -0.1289868 0.036348194 0.017943636 0.15623926 -0.06143695
0.06302871 -0.0120444745 -0.121432275 0.14581211 -0.0047982037 0.018597841 -0.07682721 0.018131867
-0.032597885 0.026497006 -0.06514246 0.11888932 0.15718721 0.111040816 -0.078808576 -0.04219936
0.17220472 -0.0698828 0.10138054 0.15671103 0.17360674 0.15979601 -0.14438823 -0.10517931
-0.09531927 -0.106857136 0.061389998 0.07203466 0.11361875 -0.088735975 0.0043254048 0.052014187
0.07247378 0.1622238 -0.030734867 -0.14715332 -0.007348001 -0.12706487 -0.07935657 0.0012369752
-0.012063265 0.10314627 0.073228285 0.15384464 -0.05410239 0.11575319 0.0880319 0.14121507
-0.16430911 -0.079245724 0.045997262 0.0707767 0.06040819 0.051921755 -0.1269501 -0.07191808
0.034233943 0.005003467 -0.04206483 -0.00931862 -0.11190937 0.10050227 0.038448215 0.11660667
-0.042549223 0.010444447 0.04205054 -0.1332532 0.11027117 -0.074807875 -0.052918695 0.10686134
0.11154063 0.07751931 -0.007943168 0.011095539 0.16023077 0.10737787 0.1566663 -0.10047147

sequential_1/dense_5/MatMul f4 [41, 64]
00000000: f004 793c 5c24 8dbd a830 7abd 0592 1c3e
00000010: 490b 6f3e d1c4 eabd 60ab e43b 48e8 8bbd
00000020: ca89 26be f835 eb3c 3354 66be a378 6bbe
00000030: 0e0b 8d3d 83d1 563e 7a02 2cbe 87b0 2abe
00000040: d17c 56be 9732 293e 15f6 5d3e a3f3 2a3e
00000050: d7b5 413e 5051 063c 5014 74be f455 633d
00000060: c004 b5bd da86 3bbe 67fe 5e3e 039f 423e
00000070: 7dd7 5e3e ea20 06be df90 523e d54b 61be
00000080: bc5d 0abd 5e7f a43d bfc9 3dbe 7e00 27be
00000090: 70ff d9bd 6e7f ea3d 40cf 92bd 30c7 d9bc
000000a0: 302b 5dbc aebc 67be e053 83bc 525e 28be
000000b0: e6da 47be d492 1cbd 5c81 293d 304f fabc
000000c0: d040 1bbd eed6 49be ec50 70bd c093 7ebc
000000d0: a812 f13c ce43 ee3d 7546 2cbe 70f5 13be
000000e0: e014 3cbe 63c3 703e cf83 693e 6b00 5f3e
000000f0: 7929 403e b0c5 06bc b72b 05be a693 913d
00000100: 7116 293e b223 24be 1449 5e3d 1ad4 b43d
00000110: 3763 5d3e 300c ecbd a1fc 0c3e af6c 3f3e
00000120: 9285 85bd 4493 53be 8629 ea3d fdf8 203e
00000130: 408f 85bd cc57 52be c4cd e6bd 0bcb 24be
00000140: c2f1 abbd 96e8 d6bd fef3 ff3d b33b 353e
00000150: 5723 6fbe e760 45be 2415 4abd 0f41 023e
00000160: 401b 86bb 0550 f1bd 5e67 9dbd b88f 8dbd
00000170: 347f 633d b6b4 34be d41c 703d 42ce ccbd
00000180: 15d6 373e 6377 3a3e 0f50 48be d0a4 d5bc
00000190: e0e0 88bd ec18 5fbe 369b 8c3d 5e5a 61be
000001a0: 0a41 bdbd ddc2 453e f8ff 10bd 03f6 373e
000001b0: ced9 963d 0ec9 893d ff2f 03be 7076 433c
000001c0: c822 32be e24c 8f3d 643e 28be a6ed 5bbe
000001d0: 674e 2b3e a043 a5bc e46f b3bd bc2b 26bd
000001e0: 8841 8c3c d0bc 6c3c 3f6a 0b3e d4b6 90bd
000001f0: dd2e 603e 2ecc 24be 2b29 2fbe 4fa3 203e
00000200: 5d1c 073e 2360 6c3e 4320 69be cc70 13be
00000210: c4ff 783d a34e eabd 30cd 2bbe ace9 29be
00000220: 1586 263e 4866 ce3c b097 0cbc 2859 30bd
00000230: 5488 133d e027 f3bc f0ef 1fbd 4c33 2bbd
00000240: b804 2cbe c486 273d bd5d 68be 50c9 78bd
00000250: fb6b 51be ba62 46be 4d4f 1e3e 98af 93bd
00000260: 5022 91bd 6c8d 753d f855 c43c 1210 f13d
00000270: 729f b53d 62d5 1fbe 4cd4 8dbd a8c7 bc3c
00000280: 780a ec3c dedd b43d ce28 fe3d a442 483d
00000290: b912 503e 3452 80bd b70d 00be fbdb 45be
000002a0: c58c 37be 11d4 e9bd 41b9 743e abcf 3e3e
000002b0: 40b3 e7bd 2876 bf3c cc17 4f3d 3ceb 31be
000002c0: 47f9 ffbd 98d8 38be b0d5 a6bc 2a80 e13d
000002d0: bbfa 273e 0e71 cd3d b48f 02be 8292 33be
000002e0: 1cd4 19be a714 2e3e 3c98 4f3d 82f6 ef3d
000002f0: 2397 3c3e 092a 423e db4d 2e3e 0494 23be
00000300: e7b0 3d3e c548 3abe f432 6e3d b0d9 683c
00000310: 738e 123e 372c 603e e6b0 d83d 44be 4dbd
00000320: aba1 403e 4ed8 853d 7687 903d 226b a2bd
00000330: 8283 46be 83ae 6a3e 12eb d8bd 3627 bc3d
00000340: a1ab 48be 6853 68bd a34c 253e fe23 3cbe
00000350: 4837 55bd 8819 debd b7b2 27be efd5 6d3e
00000360: 6f5a 3f3e 2bcd 5f3e f027 19be 9aea ff3d
00000370: 55ee e9bd 72fa f53d a9ad 353e 3c5e 12bd
00000380: 268f 2abe 8012 68bc 5903 333e 4f52 32be
00000390: 8d35 163e 651a 313e 1c85 4cbd a0f3 d1bc
000003a0: 9109 203e 565a 02be ae6d 953d 2004 4bbe
000003b0: 4198 453e ac93 3e3d caf5 bf3d b334 29be
000003c0: d88e c83c beca c1bd e4e8 453d 10f3 f4bc
000003d0: d03b 9cbc 781b 48be 9aeb 92bd 3c86 3ebd
000003e0: 457b fabd 6b91 253e 0854 bbbc 872a 293e
000003f0: c830 de3c 002b 0abd b979 1e3e 8ad9 ca3d
0.015198931 -0.068917006 -0.06108156 0.15290077 0.23344149 -0.11463321 0.0069784373 -0.068314135
-0.162635 0.028712258 -0.22493057 -0.22995238 0.06886874 0.2097836 -0.1679782 -0.16668902
-0.20946051 0.16523205 0.21675904 0.16694503 0.18917023 0.008198097 -0.23835874 0.055501893
-0.088387966 -0.1831316 0.21776734 0.1900597 0.2176189 -0.13098493 0.20563076 -0.22001584
-0.0337808 0.08032106 -0.18533991 -0.16308782 -0.10644424 0.114500865 -0.07168436 -0.026584238
-0.013499066 -0.2263057 -0.016031206 -0.1644223 -0.19517097 -0.038225964 0.041383132 -0.030555338
-0.037903607 -0.19710895 -0.058670923 -0.015538156 0.029427841 0.116340265 -0.16823752 -0.14449096
-0.18367338 0.23512034 0.22804187 0.21777503 0.1876582 -0.008225843 -0.13004957 0.0710824
0.16512467 -0.16029242 0.05426891 0.08829518 0.21619879 -0.11525762 0.13768245 0.18693803
-0.06519617 -0.20661646 0.11433701 0.15719981 -0.065214634 -0.20541304 -0.112697154 -0.1609308
-0.08395721 -0.10493581 0.1249771 0.17698555 -0.23353325 -0.19275247 -0.049336568 0.1272013
-0.004092604 -0.11782841 -0.07685731 -0.06912178 0.055541232 -0.17647061 0.058621243 -0.10000278
0.1795276 0.18209605 -0.1956179 -0.026079565 -0.066835165 -0.2178685 0.06865542 -0.22007129
-0.09240921 0.19312616 -0.03540036 0.1796494 0.07365762 0.06727801 -0.12811278 0.011930093
-0.1739608 0.06997086 -0.1643005 -0.21477374 0.16729127 -0.020173848 -0.08761576 -0.040569052
0.017121091 0.014449313 0.13614748 -0.07066122 0.21892877 -0.16093513 -0.17105548 0.15687297
0.13194413 0.23083548 -0.22766213 -0.14398497 0.060790792 -0.1144078 -0.16777492 -0.16593045
0.16262086 0.025195256 -0.008581087 -0.043053776 0.036018685 -0.0296821 -0.03904718 -0.041796967
-0.16798675 0.040900007 -0.22692008 -0.06073886 -0.20451348 -0.19373599 0.15459938 -0.07211226
-0.07086623 0.059949324 0.023966774 0.11770643 0.088683024 -0.15608743 -0.06925258 0.023044422
0.028813586 0.0883138 0.124101266 0.04889168 0.20319642 -0.06265679 -0.12505232 -0.19322197
-0.17924793 -0.114174016 0.23898794 0.18633907 -0.11313486 0.023371771 0.050559804 -0.17374891
-0.12498718 -0.18051374 -0.020365566 0.110107735 0.1640424 0.10031329 -0.12750131 -0.17536357
-0.1502232 0.17000066 0.05068229 0.117169395 0.18417029 0.18961348 0.17021887 -0.15974432
0.18524514 -0.18191822 0.05815406 0.014212057 0.14312153 0.21891867 0.10580616 -0.05023028
0.18811671 0.065353975 0.07057087 -0.0793059 -0.19386104 0.22918133 -0.10591711 0.091871664
-0.19596721 -0.056720167 0.16142516 -0.18373105 -0.052054673 -0.108447134 -0.16376768 0.2322614
0.18686841 0.21855609 -0.14956641 0.124959186 -0.11422411 0.12010659 0.17742027 -0.0357344
-0.1665617 -0.014164567 0.17481746 -0.1741421 0.14668866 0.17295225 -0.04993163 -0.025628865
0.1562865 -0.12729773 0.0729631 -0.19825792 0.19296362 0.04652755 0.093730524 -0.1652401
0.024482176 -0.09462498 0.048317805 -0.029901057 -0.01907149 -0.19541728 -0.07173844 -0.046514735
-0.12230543 0.16168754 -0.022867218 0.16520129 0.02712287 -0.033732414 0.15476121 0.099047735
